senn/utils/MNIST_autoencoder_pretrained.pt (torch_old, 83162 bytes, 39 tensors)

encoder.0.weight f4 [16, 1, 3, 3]
000000 43 de 69 be 09 a7 91 be a0 95 e8 be 84 00 b5 be
       -0.22838692 -0.2844775 -0.45426655 -0.35351956
000010 a5 27 86 be 8d 08 49 bb 5f bf a7 3e f1 bb 04 3e
       -0.2620212 -0.0030675263 0.32763192 0.12962319
000020 9c d2 35 3f ae e6 28 bf 33 db 08 be c8 b4 45 3e
       0.7102449 -0.6597699 -0.13364868 0.19307244
000030 ae 5b c5 3e f4 3d b0 3e 63 1e 8e 3e d5 7c 18 3f
       0.3854651 0.34422266 0.27757558 0.5956548
000040 40 e1 b1 be dc f0 a3 3e fd 07 4a bd 7a 55 b7 bd
       -0.34742165 0.320197 -0.049324024 -0.0895185
000050 6a d0 e5 3e 94 8d 94 be e8 c0 8b be be 68 39 3c
       0.4488557 -0.29014266 -0.27295613 0.011316476
000060 8f d2 36 be fc 0f e9 3e 2a fa 21 3f a8 8d 37 bc
       -0.17853759 0.45520008 0.63272345 -0.011203207
000070 37 dc e7 3e 7e a5 52 3f 1e 10 5f bd 1b 7d d3 be
       0.45285198 0.8228377 -0.05445873 -0.41306385
000080 9b d0 a1 bd 31 78 9b be 79 7e 96 be a9 b7 66 be
       -0.079011165 -0.30365136 -0.29393366 -0.22530998
000090 c8 fc fa 3e 6c df 6b 3e 81 14 99 bd 4a f4 72 bd
       0.49020982 0.23034447 -0.07474614 -0.059315003
0000a0 03 72 a8 3e 86 b1 f8 3e d5 85 ca be ce 97 9f be
       0.32899484 0.4857294 -0.3955523 -0.31170505
0000b0 0a bb d7 3e dc c6 74 3e e5 dc 59 be 99 8e 17 3f
       0.42134887 0.23903984 -0.21275671 0.5920196
0000c0 c4 7d c7 3e 12 f8 b0 bd ac 4c db 3e 9c 6b 71 3e
       0.3896314 -0.08641066 0.42831933 0.23576206
0000d0 a9 30 f5 bd 48 9f f0 be a0 5f a8 3e 2f 40 28 bf
       -0.11972172 -0.46996522 0.32885456 -0.65722936
0000e0 fb 10 04 bf 5b a5 05 be fe ff 1a bf e4 d3 23 3c
       -0.5158841 -0.1305136 -0.60546863 0.009999249
0000f0 23 9f 31 be d0 79 db be 6e 53 8b be c5 18 0e 3f
       -0.17345862 -0.42866373 -0.2721209 0.55506545
000100 44 ed d1 3e 8e 77 d2 bd cd f0 91 3e a9 8e 48 3d
       0.41001332 -0.102767095 0.2850403 0.048964176
000110 ab b7 dc be fe e2 08 be 8a 85 f3 be 3e ca 24 be
       -0.43108878 -0.1336784 -0.4756282 -0.16092774
000120 fe be 8c be f9 94 9f 3e 62 5c 17 3f ed 0c eb be
       -0.27489465 0.31168345 0.5912534 -0.459083
000130 fc 47 7f 3e e5 db de bd 59 00 b7 3e 9e 81 42 3f
       0.24929804 -0.10881785 0.35742453 0.7597903
000140 de a9 a7 be 1c d3 55 3e e3 97 03 3f 1f be 9e be
       -0.32746786 0.20881313 0.51403636 -0.31004426
000150 6e 74 dd bd f6 32 8d 3e 15 35 e3 be c3 ff 11 be
       -0.10813223 0.27577943 -0.44376436 -0.14257722
000160 dd 4f cd 3e 7d a4 cb 3e 69 db 7b 3d 2b 4c 74 3d
       0.40099993 0.39773932 0.061488543 0.059642952
000170 8c 47 f7 be ca 74 a8 3e 18 d2 81 3d da 46 05 3f
       -0.48296773 0.32901603 0.063389 0.52061236
000180 94 f6 1e 3e 74 77 5c be 10 34 2f 3f 56 3c 82 bf
       0.1552375 -0.21529943 0.68438816 -1.0174663
000190 fc 8e 85 be f0 ab 68 be cc d8 83 be 80 12 66 be
       -0.2608565 -0.22721839 -0.2575134 -0.22467995
0001a0 a8 e9 b1 be 4a 52 9d be df 10 ad be fa f1 69 bf
       -0.34748578 -0.30726844 -0.33801934 -0.9138485
0001b0 5c 03 31 bf 1b ad 18 bf e8 1a d8 3c 26 3c 95 be
       -0.6914575 -0.5963914 0.026380017 -0.29147452
0001c0 e9 99 56 bd be da 3b 3e 7b 66 3c bf 16 c5 1d bf
       -0.052392874 0.18345162 -0.7359387 -0.61628854
0001d0 d2 d5 d6 3e 63 5d 0d 3f b5 55 96 3e 38 2f 09 3e
       0.41960007 0.5522062 0.29362264 0.13396919
0001e0 23 ca 9d 3e 94 e2 b7 3d 9a 18 87 bd 83 09 d5 3e
       0.3081828 0.08978763 -0.06596489 0.4160882
0001f0 44 df 69 3e 41 5f e8 3d 0a 4f 23 3d c7 c3 e6 be
       0.22839075 0.11346293 0.0398703 -0.4507124
000200 d3 54 f0 be 19 42 79 3e 70 e3 a3 3d fd 93 c4 bd
       -0.46939716 0.2434162 0.08002365 -0.09598539
000210 71 b5 ce 3e 6e 89 0a 3f 58 69 98 be e9 a0 37 3f
       0.40372804 0.5411595 -0.2976787 0.71729904
000220 d7 e2 c4 be 62 72 26 be fd c7 c8 3e 56 69 8e be
       -0.38454315 -0.16254571 0.3921508 -0.2781474
000230 63 be 01 bc 3e 75 ea 3e a8 0e e0 3d 3b 9c 45 be
       -0.007918927 0.45792574 0.109402955 -0.19297878

encoder.0.bias f4 [16]
000000 3c 91 f1 bd 3c 10 f9 3e 0c b4 ad 3e bf 8b b2 3e
       -0.117952794 0.48645198 0.33926427 0.34872243
000010 c2 85 07 3f 44 33 e0 3e 98 3c 28 3e 82 fd 5b 3f
       0.52938473 0.43789113 0.16429365 0.859337
000020 bd 50 49 3f a9 f6 c5 3e 31 75 0e 3f 15 79 4e 3e
       0.7863882 0.3866475 0.5564757 0.20163377
000030 38 0b cb bc 51 67 e2 3e 58 a2 1d 3f f8 a5 67 3f
       -0.024785623 0.4421945 0.6157584 0.90487623

encoder.3.weight f4 [8, 16, 3, 3]
000000 18 82 11 3d 03 94 a1 bd 6e ca af bd b7 41 69 3d
       0.035524458 -0.07889559 -0.08583532 0.056947436
000010 07 11 e4 bb c6 ba 96 bd b8 d7 20 bd 6c 9c a4 bc
       -0.0069600376 -0.07359843 -0.039268225 -0.020094119
000020 41 38 95 bb 77 14 25 bd f5 4a 1d 3c d4 92 af bc
       -0.004553825 -0.04030272 0.009600391 -0.021432318
000030 41 da d7 bc 18 03 11 bd 85 cc 05 bd ea e4 82 bd
       -0.026349189 -0.03540334 -0.03266575 -0.06391318
000040 73 07 3a bd 73 e6 27 3d 87 79 a6 bd 18 38 db bc
       -0.04541726 0.040991258 -0.08128648 -0.026760146
000050 2c 8d 88 3d c8 dd 84 3c 0e 44 83 3c c2 ce 93 bd
       0.066675514 0.016219035 0.016023662 -0.0721717
000060 bf 7f 1c 3d 7a 68 20 bd 85 4e 9d bd 0a f3 67 bd
       0.038207766 -0.039162137 -0.07680992 -0.056628264
000070 d7 c3 1b bd 0e 21 7c bd 87 58 73 3d dc 67 48 bd
       -0.038028564 -0.06155496 0.059410598 -0.048927173
000080 fb f0 cc 3b be 50 0a bd 84 ec e8 bb e6 91 e5 3c
       0.006254313 -0.033768408 -0.007108273 0.028023671
000090 a9 fa d8 ba 90 d5 e3 3c b9 d9 81 bd 3d 23 8a 3d
       -0.0016554195 0.027811795 -0.063403554 0.067450024
0000a0 99 e4 72 bd 2e 75 0a 3d 52 82 e9 3b 5f 8f a5 3b
       -0.05930004 0.033803158 0.007126131 0.0050524916
0000b0 32 8b a1 bd 25 8f 97 bd d4 e0 b7 bd ff f0 4d bd
       -0.078878775 -0.074003495 -0.089784294 -0.05027866
0000c0 cd 22 52 3c a9 e3 b3 3b c1 e8 c2 bd 6f 05 2e 3d
       0.01282568 0.0054897857 -0.095170505 0.04248565
0000d0 7a a7 f1 3c 2d 2b 5f 3d af d7 d8 bc 98 c8 a4 3a
       0.029498804 0.054484535 -0.026470033 0.0012571989
0000e0 72 f7 1f 3c 1a a0 64 3c ea 52 45 3c 61 a9 51 bd
       0.009763585 0.013954187 0.012043694 -0.051186923
0000f0 d6 15 e4 3b 02 45 ce bd e7 df f9 b9 f0 aa a0 bd
       0.006960611 -0.10071756 -0.000476598 -0.07845104
000100 a7 b3 24 3d 90 57 bd 3c 07 05 9c bd 65 42 08 3d
       0.040210392 0.023113042 -0.076181464 0.033266444
000110 20 7b d9 3c d7 16 52 bc e4 42 2f bc d8 ad 35 3d
       0.026547968 -0.012822828 -0.0106971 0.044355243
000120 85 6e aa bc 3c b2 56 bd 79 6c 6e 3d 69 3c 8d bd
       -0.020804653 -0.05241607 0.058208916 -0.06896288
000130 ea c4 a2 bd 0a 84 e9 3a 61 e1 ba bd 77 07 18 3d
       -0.079477146 0.001781584 -0.09125019 0.037116494
000140 42 c9 89 bd 2b c2 08 3d 10 47 6a bd ec e4 16 3d
       -0.0672784 0.033388298 -0.057196677 0.03683941
000150 a3 8c e1 bc 34 9d 20 3d d7 a9 87 bd d4 06 57 bd
       -0.027532881 0.03921242 -0.06624191 -0.052496746
000160 ad ce 49 3d 2a 22 45 bd 57 59 2e bd 6c 51 5b 3b
       0.049269367 -0.048128285 -0.04256567 0.003346528
000170 e6 ea 9f bd 4e 7f 46 3c 1f b0 00 bd 8e 2b 5f 3d
       -0.07808475 0.012115313 -0.031417962 0.054484896
000180 df 01 bd 3c 3e ea 3a bc a2 68 a9 3b 97 20 d8 bc
       0.023072181 -0.011408387 0.005169944 -0.026382728
000190 0e b4 c0 bd 5e 2f 7e bd d2 02 76 bd 85 ce 17 3b
       -0.09409343 -0.06205689 -0.060061283 0.0023163867
0001a0 71 91 6e 3c 32 59 2b bd bf 0f 3a bc ab 33 29 bd
       0.014561043 -0.04183311 -0.011356293 -0.04130904
0001b0 36 6e a0 bd e1 ee 23 3d 73 a2 98 b9 25 34 fc bc
       -0.07833521 0.040022735 -0.00029112733 -0.030786583
0001c0 f5 2a a7 bd 86 52 81 bd 03 da ed bc 18 29 0a 3d
       -0.0816249 -0.06314568 -0.02903462 0.033730596
0001d0 ea 71 9a bd d6 25 4b 3d 81 91 08 3d a8 c8 3c 3c
       -0.07541259 0.04959663 0.03334189 0.01152245
0001e0 22 94 80 3d ae c8 99 3c fb 6d 9a bd 7a f0 5b 3b
       0.06278254 0.01877245 -0.07540508 0.0033560083
0001f0 6a de 8f bc b4 9b a7 bd f2 16 2a 3d dc 3d f4 bc
       -0.01756211 -0.08183995 0.04152579 -0.029814653
000200 1d 23 5e bd f6 9b 33 bd 99 66 88 bd 5a 74 82 3d
       -0.054232705 -0.043849908 -0.06660194 0.063698485
000210 a0 b1 a6 bc 82 b7 6a 3c 92 9b 36 bd 95 91 9a bd
       -0.02034837 0.014325978 -0.044581957 -0.07547299
000220 bd 5c 23 bd 0b 79 9c bd 16 8f 84 bc cf 8a 51 bd
       -0.039883364 -0.076402746 -0.01618151 -0.05115777
000230 e8 3c 0f bc 4a 3e 85 3d 7c 03 a2 bb 5f e5 2f bd
       -0.0087425485 0.06506021 -0.004944263 -0.042943355
000240 2d 40 ac 3c 01 46 6e be 43 da 14 be 38 8f 19 3e
       0.021026695 -0.23268892 -0.14536385 0.1499604
000250 fd b0 99 bd 95 7a 59 bc 88 40 fc 3e 1d 3a 98 3e
       -0.07504461 -0.013273855 0.49267983 0.29731837
000260 e9 f3 30 3e 6a 76 89 3e ce 3d b0 3d 97 1c d4 3d
       0.17280544 0.26848155 0.08605538 0.103570156
000270 fd e7 ee bd d9 bf d1 3d 4b 27 c2 3c 41 05 a8 3e
       -0.11665342 0.1024167 0.023700377 0.32816508
000280 7d 12 97 3d be 29 16 3e 04 98 00 3e a2 3d 41 3d
       0.07376573 0.14664361 0.1255799 0.04717792
000290 37 be 6a 3e dc a2 90 be a9 c3 64 bd 8f 2f a3 bc
       0.22924124 -0.28249252 -0.05585066 -0.019920139
0002a0 ea 41 2e 3e 08 1f 84 bb 98 95 47 3e a9 6d 93 3e
       0.17017332 -0.0040320195 0.19490659 0.28794602
0002b0 52 b9 8d 3e 45 b6 b0 3d 79 62 fb 3d 05 26 2f 3e
       0.2768045 0.08628515 0.122746415 0.17104347
0002c0 99 2c 46 3e 1b 2a c2 be 7b ce 13 be ee 81 c1 3d
       0.1935295 -0.3792275 -0.14434235 0.0944861
0002d0 7e ad 14 3e 22 1e 8b 3e a0 e4 e3 3d f8 e0 02 be
       0.14519307 0.27171427 0.11127591 -0.12781131
0002e0 bd 22 87 3e 35 bb 4a 3e 8e 84 ed 3c a2 19 d9 b8
       0.2639369 0.19797976 0.028993871 -0.00010352141
0002f0 d9 4d 86 3e e6 91 6f 3e ac 97 ab 3d 5c ff 6c 3e
       0.26231268 0.233955 0.083785385 0.23144287
000300 3d 1e 20 be 56 5b 05 3e e7 f9 3f 3b 0d 93 7a 3e
       -0.15636535 0.13023123 0.002929324 0.24470158
000310 48 62 f6 3c 21 3b 26 3e bc bb c8 bd 5b 48 19 be
       0.030076161 0.16233493 -0.098014325 -0.14969008
000320 0e 80 47 be 31 aa 1a 3e 94 22 77 be 42 0b bd 3d
       -0.19482443 0.15103985 -0.24134284 0.09230663
000330 0e 0e 84 bd aa eb e9 bd 29 a7 96 be 99 44 fe 3d
       -0.06447993 -0.114219025 -0.29424408 0.12415428
000340 b1 1c d4 bd ab 88 69 3d 64 25 c9 bd 24 a5 61 bd
       -0.10357035 0.057015102 -0.09821585 -0.05508913
000350 fd 0a 11 bd f5 90 a8 3c 6e 60 d1 bd 2e b2 5b 3d
       -0.03541087 0.020576933 -0.10223471 0.053636722
000360 f5 f2 29 3e 61 2d d7 3d db 5c 6b 3e 05 a2 5e be
       0.16596587 0.10506702 0.2298464 -0.21741493
000370 d9 9f 99 3d de 91 89 bd dd 50 5d 3e d7 cf e6 3d
       0.07501192 -0.06717275 0.21612878 0.11270111
000380 71 f7 e4 3d e8 36 19 3e 2b 6c 87 3e d1 c0 03 3e
       0.11180008 0.14962351 0.26449713 0.12866522
000390 22 0d 02 be a2 cc 06 3e 77 40 dc bc 04 ad 5e 3e
       -0.12700322 0.13163999 -0.026886208 0.21745688
0003a0 4d 06 c8 3d 19 9d 98 3d b9 8e 19 3e b0 6f 90 3e
       0.09766827 0.07451839 0.1499585 0.2821021
0003b0 20 68 29 3e b6 e3 1b 3e 30 75 12 3e 63 d6 9f 3d
       0.16543627 0.15223584 0.14302516 0.07804563
0003c0 2b d2 61 3e f0 ec 84 3e 08 fc 63 3d 20 bd 26 be
       0.22052829 0.2596202 0.055660278 -0.16283083
0003d0 b1 82 a1 be 33 21 69 be e6 b1 b1 3e fe 52 5e be
       -0.31545022 -0.22766571 0.34706038 -0.21711347
0003e0 e5 b0 36 3d c7 f4 c8 be b5 4b 1c be c1 9b 94 be
       0.044602294 -0.3924925 -0.15263255 -0.2902508
0003f0 c7 44 af bd 90 dc ec bd 8b 1c 31 3e 8c 2c 59 be
       -0.0855804 -0.115655065 0.17296045 -0.212084

encoder.3.bias f4 [8]
000000 a2 04 03 3d f8 5b 41 be 39 66 2d bd e9 1e 5f 3d
       0.03198684 -0.1888274 -0.042333815 0.054472838
000010 86 57 30 be 4e 42 82 3d 21 47 7a 3c 60 77 2d 3f
       -0.17220888 0.06360303 0.0152757475 0.67760277

encoder.7.weight f4 [10, 32]
000000 9a 36 4d bd 3b a7 82 bd f4 c5 b6 bd 89 6f e9 3d
       -0.0501009 -0.06379553 -0.08924475 0.11398227
000010 96 6e 98 bd df 2e 80 bd e6 f2 a6 3d a9 d3 01 be
       -0.074429676 -0.0625894 0.08151798 -0.12678398
000020 ff 43 00 be e9 23 af bd f3 9e 2b be 1d ea 87 bd
       -0.12525938 -0.08551771 -0.16759853 -0.066364504
000030 4a 5e 7a be 71 60 a8 be 16 b5 4a bd 67 b5 4a be
       -0.24450031 -0.3288608 -0.049489103 -0.19795762
000040 6c 70 34 3e b3 57 50 3e 4b 5f 07 3e d4 30 00 3e
       0.1762101 0.20345955 0.13219945 0.12518626
000050 b7 8e a5 3d f3 f7 9b 3e 00 74 72 3e d8 58 e5 3d
       0.08083861 0.30462608 0.23677063 0.11198586
000060 d1 2a 92 bd 85 fa 50 3e e3 e3 87 3e b3 1c 7f 3d
       -0.07137073 0.20408066 0.2654105 0.06228323
000070 18 db e1 be 04 77 a3 3e d4 51 c0 3d 4b 54 c8 3d
       -0.44112468 0.3192674 0.093906075 0.097817026
000080 e0 34 3b be 57 96 dd bd dc 7d be 3d f1 84 08 3d
       -0.18281889 -0.10819691 0.093013495 0.033329908
000090 c4 cb f8 bc ed 6f b8 bd 0a e1 ae 3c b9 fb 15 3c
       -0.0303706 -0.09005723 0.021347541 0.009154254
0000a0 3f 6b 83 3e a1 77 e8 3e 9b 48 89 3e bf 23 a6 3e
       0.2566776 0.4540377 0.26813206 0.32449147
0000b0 9c 26 32 be 45 9e cf 3b e3 8e 6c be 65 c3 6a bd
       -0.17397541 0.006336006 -0.23101382 -0.05731525
0000c0 a1 cf 4a 3e 2b df 7e bd 42 9d 6c 3e 4f b1 40 3d
       0.19805767 -0.06222455 0.23106864 0.047044095
0000d0 bd 6a b3 bd a4 71 af 3c e3 9a 94 be 07 f5 93 be
       -0.08760593 0.021416493 -0.2902442 -0.2889788
0000e0 42 d3 bc bd c5 1a 5d be 3a 19 b2 3d aa 3a 07 be
       -0.09219982 -0.21592243 0.08696218 -0.13205972
0000f0 1a 9e 0e bf 25 8d 9e 3e 91 df c2 3d f5 3b ab 3d
       -0.55709994 0.3096706 0.09515298 0.08361045
000100 3f 27 f7 bc ba 99 e2 3d 8b 9b 18 be c4 a6 bc 3c
       -0.030170081 0.11064477 -0.14903085 0.023028739
000110 52 8c 3a 3e ed a8 04 3e 88 47 07 be 1b c1 ad 3d
       0.1821759 0.12955065 -0.13210881 0.084840976
000120 21 3d 05 3e bc f9 4a 3e fc e3 bb 3d 52 78 71 3e
       0.130116 0.19821829 0.09174344 0.23581055
000130 4b 4a 2d be ae b3 86 bc 62 90 d2 3d 97 a3 21 3e
       -0.16922872 -0.0164431 0.10281445 0.15785061
000140 0a 76 7a be 0c fc 8c bd 39 73 ff bd 7b 56 67 bd
       -0.24459091 -0.068840116 -0.12473149 -0.05647896
000150 ae 6c b4 3e 2f 23 c8 3e f4 d3 b4 3e 6d 91 89 3e
       0.35239166 0.39089343 0.35317957 0.26868764
000160 fe 03 98 be 9a 39 99 be ed a5 8b 3d dc 52 94 bd
       -0.29690546 -0.2992676 0.06818757 -0.07242367
000170 4f e8 96 3d 2b be be bc b8 ba de bd 0f fa 69 bd
       0.07368528 -0.023284039 -0.108754575 -0.05712324
000180 2c 66 1b be ed 76 16 3e 4d a8 28 3c 79 6c 20 3d
       -0.15175694 0.14693804 0.010294032 0.039165948
000190 37 b6 03 3f ba 1f df 3e 8a 7f 07 3f 17 41 82 3e
       0.5144991 0.43578893 0.52928984 0.25440285
0001a0 47 74 95 3d 33 3b 23 3e 61 b7 9a bd c6 1c 01 3d
       0.07297569 0.15940551 -0.07554508 0.03152158
0001b0 f7 8a c9 bd 53 cf d0 3c 20 b2 ea 3c fb ef 35 be
       -0.098409586 0.025489485 0.02864939 -0.17767327
0001c0 64 41 67 3d 51 0b 62 3d 95 8d 2f 3e 92 a8 2d 3e
       0.056458846 0.055186573 0.17143853 0.16958836
0001d0 f6 9d b5 bd 36 d5 7c be 3f 75 05 be f2 8f 83 be
       -0.08868019 -0.24690709 -0.13033007 -0.2569576
0001e0 2b fd de be f7 eb ab be c4 8c 87 be 41 f8 3b be
       -0.43552527 -0.33578464 -0.26474583 -0.1835642
0001f0 04 7f cc be 7b c8 a1 be 3c fe 3c 3e da 50 39 3e
       -0.39940655 -0.31598267 0.18456358 0.18097249
000200 15 e0 d8 3d 1b bc 10 3d 1a 61 d3 bb 70 51 0f 3d
       0.10589615 0.03533564 -0.0064507844 0.034989774
000210 13 c3 3d bd e6 c7 7c be 35 8d ab bd d3 8c a4 be
       -0.046328615 -0.2468563 -0.083765425 -0.3213869
000220 9f 81 18 bd 26 d0 54 bd 8a 2c 64 be c5 e4 1c be
       -0.03723299 -0.05195632 -0.22282615 -0.15321644
000230 f5 26 5f 3e dc 4d b2 3e 67 3a 46 3c ee e8 b3 bc
       0.21792205 0.34825027 0.012098885 -0.021961655
000240 10 e4 49 3e 55 b1 c3 3e 32 8f 88 3e d0 3a 9c 3e
       0.19715905 0.3822123 0.2667175 0.3051362
000250 70 eb 48 be e7 30 e4 bd 30 9d 33 3d 1b 9d d1 bc
       -0.19621062 -0.1114214 0.043851078 -0.025587609
000260 c6 3d 60 bc a3 22 80 be d6 46 37 be f3 19 61 bd
       -0.013686603 -0.25026426 -0.17898116 -0.054956388
000270 11 61 67 be 1f 0b 3c be 52 3e a0 3e 68 4b 54 3e
       -0.22595622 -0.18363617 0.31297547 0.2073189
000280 80 26 75 3d fc f4 9b 3d 1e 80 5f bd 09 cb 76 bc
       0.05985117 0.076150864 -0.05456554 -0.015063056
000290 17 8c 71 be ec 9f a9 be 91 c4 90 be 0f fa b1 3b
       -0.23588596 -0.33129823 -0.28274968 0.0054314206
0002a0 fd cc 69 3e c3 37 e7 3d d8 47 7b 3b 44 8a 54 bd
       0.22832103 0.112899326 0.0038342383 -0.051889673
0002b0 dd b9 8a be 4d 0f 5e be c1 b9 42 bd 7b 07 cb be
       -0.27094927 -0.21685524 -0.04754043 -0.39654145
0002c0 77 9b 2f bd 55 0d 29 bd 64 d1 83 3d 91 6c aa 3d
       -0.042872872 -0.04127248 0.064364225 0.08321489
0002d0 36 4f 7f 3d 76 c2 46 3e 78 ae 63 3d e9 d7 5f 3e
       0.0623314 0.19410118 0.05558631 0.21859707
0002e0 fc 48 89 be ae f9 56 be f9 5c ed bd c3 f9 6b be
       -0.26813495 -0.20993683 -0.11589999 -0.23044495
0002f0 5f b3 97 bc 3c 5b bc be 07 2d a4 3d 92 48 14 3e
       -0.018518148 -0.36788356 0.08016401 0.14480808
000300 a8 18 06 3e 85 a4 fc bd 51 2e 1f be 9a 7d e8 3c
       0.13095343 -0.12336067 -0.15545012 0.028380204
000310 35 69 89 be ad 04 94 bd e5 ec 35 3c 14 cd 5f be
       -0.2683808 -0.07227454 0.011103843 -0.21855575
000320 38 0f 87 bd 31 ea 44 3d ef 36 36 3e d3 c8 32 3e
       -0.065946996 0.048074905 0.17794393 0.17459421
000330 e5 71 b8 bd bd 6a 58 be b9 55 2e bd 95 69 34 3d
       -0.09006099 -0.21134467 -0.04256222 0.044046003
000340 4f e0 b4 3e 0d fc 94 3e 0f 6b 90 3e 89 44 cf 3e
       0.35327384 0.2909855 0.2820668 0.40481976
000350 cc 46 3a 3e 84 25 41 3e aa 00 64 3d 05 2a 86 3d
       0.1819107 0.18861967 0.055664696 0.06550983
000360 52 8c a5 3d cd 4e 78 3e 65 1c 8a be 42 95 48 be
       0.080834046 0.2424881 -0.26974788 -0.19588187
000370 3a 96 d8 bd 95 a8 9d 3e b7 01 07 be 03 a6 30 be
       -0.105755284 0.3079268 -0.13184248 -0.17250828
000380 de ae a4 3d e7 e5 1d bd 2b b6 2d 3d 2c a2 ff 3d
       0.08041166 -0.03854933 0.042410057 0.12482104
000390 15 a0 98 bd 0b f0 ff 3d b5 bd ec bd 82 97 0c be
       -0.07452408 0.124969564 -0.11559621 -0.1372967
0003a0 8d 11 21 3e dc 35 a8 3d 77 fe 19 3e 9a bf 3b be
       0.15729351 0.08213398 0.15038477 -0.18334809
0003b0 4d 80 6d bc ae d8 c6 3d e4 b8 48 bc cd b6 28 3d
       -0.014495921 0.09709297 -0.012251113 0.041189957
0003c0 7c 2f 62 be 0c 36 87 be b9 8b 9f be 4a c4 6a be
       -0.22088426 -0.26408422 -0.31161287 -0.22926441
0003d0 82 41 5a bd e5 81 38 bd 57 50 27 be 72 6a a6 be
       -0.05328513 -0.045045752 -0.16339241 -0.32503086
0003e0 22 ec 2e 3e b4 e1 58 3e b9 19 b0 bc b2 01 1c be
       0.17082265 0.21179849 -0.02149664 -0.15235022
0003f0 ac e4 09 bf 95 06 8b 3d 63 71 e8 3e c8 10 9e 3e
       -0.5386455 0.06788365 0.45399007 0.30872178

encoder.7.bias f4 [10]
000000 84 13 02 bd 0b e3 9c bc 18 d3 65 bc 53 2a d2 3c
       -0.031756893 -0.019151231 -0.014027379 0.025654947
000010 91 6c 02 be fc c0 d3 3c a9 f1 c3 bd d7 a6 aa be
       -0.12736727 0.025848858 -0.095675774 -0.33330414
000020 04 40 28 be 32 15 50 3e
       -0.1643067 0.20320585

decoder.0.weight f4 [32, 10]
000000 59 9e 08 be ca ac 73 3e 1f 06 06 3e 3c 33 ed bc
       -0.13341655 0.23796383 0.13088273 -0.028955095
000010 71 76 6d be c9 ff 15 be f2 fd 35 3e df db 08 bc
       -0.23189713 -0.14648356 0.17772654 -0.008353203
000020 6e f0 ed be 71 37 4f be d1 75 e7 bd c9 52 28 bf
       -0.46472496 -0.20235993 -0.113017686 -0.6575132
000030 c4 1f 91 3e a5 73 03 be 7f b1 49 3e d1 7e 07 3f
       0.28344548 -0.12837084 0.19696616 0.5292788
000040 a2 2d db be 35 4d 75 be 2b d1 13 be 3c 9f 8a 3e
       -0.42808253 -0.23955233 -0.1443526 0.2707461
000050 cd f9 8e bd 9c f1 94 be 3f 3b 6f 3e fe b3 0b bf
       -0.069812395 -0.29090583 0.23362444 -0.5457152
000060 6f e1 9a be 80 13 2c be 8b 10 7e bd 3d 4b 8e bd
       -0.30250117 -0.16804314 -0.062027495 -0.06947944
000070 e0 0d 3d be 07 e2 83 bd 97 7a 04 be c7 a5 17 3e
       -0.18462324 -0.06439596 -0.1293739 0.14809333
000080 dc 8c ff bd c1 9e a7 be 24 9c 25 3e 59 2e 18 be
       -0.12478039 -0.32738307 0.16172844 -0.1486143
000090 b1 2f d9 3d d2 0e 25 bd ba 51 c7 bd 05 13 c3 be
       0.106047995 -0.040297337 -0.09732385 -0.38100448
0000a0 c9 68 1a 3e b8 2a ef bc 63 26 00 bf ab 01 15 be
       0.15079035 -0.029195175 -0.50058573 -0.14551418
0000b0 ec 3a ad 3e d2 44 4b 3e d4 6c 65 be fd 39 92 3d
       0.33834016 0.19850472 -0.22404796 0.07139967
0000c0 1c 10 4a 3d 9c e4 7a be 97 c2 5f bc ec 84 f1 bd
       0.04933177 -0.2450127 -0.013657234 -0.11792931
0000d0 3d d8 14 be 54 eb 6d 3e db 5e 8c 3e 2e 1d e0 3d
       -0.14535613 0.23234302 0.2741612 0.109430656
0000e0 01 06 8b be b3 d6 4e 3e 31 9e d1 be 6b 04 e6 3e
       -0.27153018 0.20199089 -0.40941003 0.44925246
0000f0 26 5e dd 3d c4 bb 22 be 37 89 a3 be 10 a7 09 bf
       0.10808973 -0.1589194 -0.31940624 -0.5377054
000100 93 94 0a 3e 62 de 15 3f ad 53 9a 3e e0 0a 9a 3e
       0.13533239 0.58542454 0.30141965 0.30086422
000110 96 5b be 3e 42 5c 59 3d 48 9b 1b 3e f7 1e 77 3e
       0.3717925 0.0530665 0.15195954 0.24132906
000120 0b 4d c4 3e ea 37 d3 3c 00 dc c3 bd 9b d5 be 3d
       0.3834003 0.025783498 -0.09563446 0.09318086
000130 ff 8a ea 3d 10 24 c8 bd fe 09 12 bf 54 20 2a bd
       0.11452293 -0.097725034 -0.57046497 -0.041534737
000140 81 d5 9a 3e af 86 ae 3e ff 49 69 be f2 b4 a2 be
       0.30241016 0.3408713 -0.22782134 -0.31778675
000150 25 e6 cc 3c ef cf ce 3d fb eb 1b bd f4 7a e7 bd
       0.025012085 0.10098254 -0.038066845 -0.11302748
000160 ad 2a 7a be 3d 83 03 3e 9b b0 0f bf 8a 51 1c bd
       -0.24430342 0.12843032 -0.56128854 -0.0381637
000170 3a 76 54 bd bc 22 d6 3c 5b 52 07 3e 0d 4b a3 3e
       -0.051870562 0.02613961 0.1321501 0.31893197
000180 0c 3b 22 3d 10 81 11 be 88 4b ff 3d 59 77 e2 3d
       0.039607093 -0.1420939 0.12465578 0.1105792
000190 3e 36 0e bf eb 54 74 be 98 ae bd bd de 8c 13 3e
       -0.55551517 -0.23860519 -0.09261817 0.14409205
0001a0 89 7e 98 3e f7 32 c2 bc a4 e4 20 be 2b 87 19 bf
       0.2978404 -0.023705943 -0.1571222 -0.59971875
0001b0 75 51 0d 3e 7f 54 00 bf 4a 43 20 3e aa 4f 5d be
       0.13800605 -0.5012893 0.15650669 -0.2161242
0001c0 86 69 9e be d4 99 9a 3e 6f 78 ca 3e a6 85 0d be
       -0.30939883 0.30195487 0.3954501 -0.13820514
0001d0 aa 50 4a be c1 51 c4 be 83 b4 f4 3d 2c 0e 93 be
       -0.19757333 -0.38343623 0.119484924 -0.2872175
0001e0 06 33 04 3c 55 a9 ab 3e eb 5e b4 3d aa 6d 52 3e
       0.008068806 0.33527628 0.08807167 0.20549646
0001f0 68 59 0b 3e e9 95 d5 bd e2 36 ca be 36 ed 9d be
       0.13608325 -0.10428984 -0.39494997 -0.3084504
000200 d8 53 03 be 55 7f 7f be 45 d4 0a be c1 ba bf bc
       -0.12824953 -0.24950917 -0.13557537 -0.02340448
000210 3e 0c e9 be 82 91 6c be 9b bb 4c 3e 7c 3d 74 be
       -0.45517153 -0.23102382 0.19993441 -0.2385158
000220 ec 12 80 3e 42 7f 86 be 41 87 a1 3c 32 ef f4 3e
       0.25014436 -0.26268965 0.019717814 0.47838742
000230 0d a0 d0 be 19 17 ac be 34 fb 28 be 79 f9 cc 3d
       -0.4074711 -0.33611372 -0.16502076 0.10008521
000240 40 fd ca 3e 01 ee ec bd 30 c7 00 bc 0c 40 dd bd
       0.3964634 -0.11568833 -0.00785999 -0.108032316
000250 91 71 86 bd 56 b3 a9 be 82 2e 15 be 90 95 0f 3d
       -0.0656463 -0.33144635 -0.14568523 0.035054743
000260 15 1d 2c be 90 5e e4 be dd 46 a8 be 31 ad ab be
       -0.16807969 -0.44603395 -0.32866564 -0.33530572
000270 f1 b4 8c bc 9c a3 9e be 15 ad 48 be b7 c4 a2 be
       -0.017176123 -0.309842 -0.19597276 -0.31790707
000280 4c d1 29 bd 0e 0b dc 3e 94 f5 3b 3e ed b5 65 be
       -0.041459367 0.42977184 0.183554 -0.2243268
000290 ec 0f 7b 3e 28 44 00 3e 09 d5 68 3e 1c f8 c7 3e
       0.24517792 0.12526 0.22737516 0.3905648
0002a0 1f 0f 0b bf e8 9a c3 bd ff da b9 be 72 17 23 bc
       -0.5431995 -0.095510304 -0.36299893 -0.00995432
0002b0 15 cc ce bd c3 7b 72 3e 78 e1 e8 bc 52 6b 50 be
       -0.10097519 0.23680024 -0.028427824 -0.2035344
0002c0 4e 60 5b be d4 3b ab 3e d2 2d 96 be 9e 53 be 3e
       -0.21423456 0.33444083 -0.29331833 0.3717317
0002d0 58 8f 88 be 70 e2 6f 3d cc ee bd bd 5b f7 93 be
       -0.26671863 0.058565557 -0.092740625 -0.28899655
0002e0 ef 28 a8 3d 2d 27 a2 be 09 82 8c be fb 79 0f 3e
       0.082109325 -0.31670514 -0.2744296 0.14011376
0002f0 42 68 3f bd 7d 22 f9 3e 71 d3 a6 3d 47 c0 0a bf
       -0.046730287 0.48659125 0.08145798 -0.5419964
000300 6c 8f 2a 3b 81 b4 0c be ec 9f 08 3f 77 9b 32 be
       0.0026025428 -0.13740732 0.5336902 -0.17442118
000310 aa a7 eb 3d 08 fa 8a 3d 1b 21 94 be 6f 60 96 be
       0.11506589 0.06785971 -0.28931507 -0.29370448
000320 dd 76 bc be d6 dc 56 3e bf 50 19 bd 36 53 ee ba
       -0.36809435 0.2098268 -0.03743052 -0.0018182758
000330 6d 8a cf 3e ef 68 82 bd b9 11 a0 be 78 29 43 3e
       0.40535298 -0.06367671 -0.3126352 0.19058788
000340 1e 97 ed bd 52 49 97 bc 8d 25 f4 be 37 c7 ac 3e
       -0.11601089 -0.018467579 -0.476849 0.3374574
000350 0b 96 04 bf e6 d5 40 be e5 de 3a be d7 f6 86 bd
       -0.5179145 -0.18831596 -0.1824909 -0.0659005
000360 75 f5 4f be 99 98 12 3f d9 0a 00 be f3 41 c0 3d
       -0.20308478 0.57264096 -0.12504138 0.09387579
000370 b3 59 32 3e 01 f6 2c 3f 80 0a 10 be c5 b5 01 3e
       0.1741703 0.6756287 -0.14066505 0.12666996
000380 74 e9 87 be e7 73 9c 3d 30 4c 54 3e 70 78 8f be
       -0.26545298 0.07639294 0.20732188 -0.28021574
000390 dd db 06 be d8 7a 97 3d ac 66 78 be c2 05 1f bd
       -0.13169809 0.073964775 -0.24257916 -0.03882385
0003a0 32 d3 27 bd be 41 15 3c 70 e8 7e be dd 70 af 3e
       -0.040972896 0.009109912 -0.24893355 0.34265795
0003b0 b1 22 02 be 8c 2d 3d be 46 0c 2c be 4f 9a 19 3d
       -0.12708546 -0.18474406 -0.16801557 0.037500676
0003c0 7d e5 a5 3e c0 8a 91 be 2e 43 ac 3e dd 2c a7 be
       0.32401648 -0.2842617 0.33645004 -0.32651415
0003d0 fa 93 c3 3d 9f ec dc bd 8c a6 2b 3e cf ed 9f 3e
       0.09549709 -0.107873194 0.16762751 0.3123612
0003e0 2e 54 63 be 16 7c 9b 3d da 10 75 be 68 5f b5 3d
       -0.22200081 0.07592027 -0.2393221 0.08856088
0003f0 4b ff 15 3e c8 25 49 be 21 26 3f 3e 15 0f ef 3d
       0.14648168 -0.19643319 0.18666889 0.116727985

decoder.0.bias f4 [32]
000000 c9 7d 0a bf 98 ea b8 3e 86 d9 df 3e 93 1e 0a bd
       -0.5409818 0.3611648 0.43720645 -0.033720564
000010 2a c6 12 3f 84 56 01 3f cf cd e0 bd 86 1a 61 3f
       0.57333624 0.5052264 -0.10976755 0.87931097
000020 4e 2d 6d bc a8 f9 18 bf f9 2b c9 be 2a 63 6b be
       -0.0144761335 -0.59755945 -0.3929136 -0.22987047
000030 e8 fd 9d 3d 23 c6 fe 3e 91 8a 80 3e b7 c4 fa 3d
       0.077144444 0.4976054 0.25105718 0.12244552
000040 84 05 a8 3b 9b a0 82 3d 4e 98 e6 3e 5b 69 b6 be
       0.0051276106 0.06378289 0.45038074 -0.35627255
000050 9d 30 79 bd b0 a5 b3 bc 4a 74 2f 3f 61 63 b3 3e
       -0.060837377 -0.021929592 0.6853682 0.35036758
000060 60 78 c1 3e 1c 87 e7 bd d7 c4 5a bd c7 b5 4a 3c
       0.3778715 -0.11305067 -0.053410377 0.012372441
000070 2f fe 92 be 79 c8 95 be 0b 19 7c 3e 46 f6 22 bc
       -0.28709552 -0.2925451 0.24618928 -0.0099464115

decoder.2.weight f4 [8, 16, 3, 3]
000000 65 8f dc bc 87 bb 6d be de a2 d5 3c 79 12 cb bc
       -0.026923845 -0.23216067 0.026078638 -0.024789082
000010 e0 2c ef 3a 0d fc 89 bd dd 60 0e 3e 73 48 2e be
       0.0018247627 -0.06737528 0.13904138 -0.17019825
000020 b2 a7 de bc 9d bd e5 bc 00 c9 8d be 0f 26 af bd
       -0.027179573 -0.028044516 -0.27692413 -0.08552181
000030 6f b1 83 3d dc 05 7c 3d 60 17 04 3e 23 69 fc bd
       0.06430327 0.061529025 0.12899542 -0.12324741
000040 88 67 cb 3b 54 ee 91 bd c2 2d 15 be f6 2a 93 3c
       0.0062074102 -0.071255356 -0.14568236 0.017964821
000050 74 dd ca 3d 2f cc 40 be 55 06 0a 3e 5d c5 f6 3d
       0.0990552 -0.1882789 0.13478978 0.12049363
000060 b3 9b 0b bd 01 8c 68 be 76 92 67 3d 46 29 80 3e
       -0.034084033 -0.22709657 0.05653616 0.2503149
000070 22 ba 0b 3d 4f 2b 35 bc 55 8f 75 bd 13 7f b3 bd
       0.034113057 -0.011057689 -0.059951145 -0.08764472
000080 3c 43 17 3e 70 74 3f bd 57 2d 93 3e e5 35 50 3d
       0.14771742 -0.046741903 0.2874553 0.050832648
000090 db 17 02 3e 63 29 85 bd 29 b0 ef bd f0 99 25 be
       0.12704413 -0.065020345 -0.11703522 -0.16172004
0000a0 a3 b3 09 be 09 55 09 be e7 1a e1 bd 75 83 a7 bd
       -0.13447432 -0.13411345 -0.10991459 -0.0817937
0000b0 b6 60 78 bd d9 cc f3 bd c7 65 67 3e 37 0f 0c 3e
       -0.060639106 -0.11904306 0.22597419 0.13677679
0000c0 43 ce b5 bd ce 19 9f 3c 24 75 19 be 1e ec 9a 3d
       -0.08877232 0.019421484 -0.14986092 0.07564567
0000d0 e5 20 11 be c8 a4 5f 3c a6 c9 cb 3d e7 4c 0a be
       -0.14172705 0.013650127 0.09950571 -0.13505898
0000e0 aa b3 c1 bd b6 41 20 3d b6 3d 8a be 16 02 18 3e
       -0.09458096 0.039125167 -0.27000207 0.14844546
0000f0 34 0d 9d bd 97 e5 24 3e 96 23 15 3e 68 c6 aa bb
       -0.07668534 0.16103207 0.14564356 -0.00521164
000100 53 7a ba 3d 64 f4 8a bd ce ab d9 39 67 23 b6 3e
       0.09105363 -0.06784895 0.0004151747 0.35573885
000110 28 43 0b bd 25 78 8d bb 95 f4 0f be ef d6 08 3e
       -0.033999592 -0.004317301 -0.14058144 0.1336324
000120 31 75 15 be c3 cd a9 3d 2b 35 16 3e a5 a4 7b be
       -0.14595486 0.08291199 0.1466872 -0.24574526
000130 76 f5 27 be 6a 77 65 3e 11 ff 88 bd 6b 1c 0d 3e
       -0.1640223 0.22408834 -0.06689275 0.13780372
000140 7d a1 dc 3d f3 cc 0a 3e 82 7d 98 bd c9 41 74 bd
       0.10772989 0.13554744 -0.07445814 -0.05963305
000150 7e 6b 2c bd 6a a8 a8 be 81 e0 09 3d 53 a9 05 bc
       -0.0420947 -0.3294099 0.03366137 -0.008158046
000160 34 f8 b4 3d a5 91 56 3c 94 3d 81 be cd ad 6c bc
       0.088364035 0.013096248 -0.25242293 -0.014445734
000170 90 31 c7 3d b7 70 b2 bd d6 06 50 be 64 5e ae 3c
       0.0972625 -0.08712905 -0.20315108 0.021285243
000180 09 28 2f be e8 1a d9 3d 32 a4 a8 bd 3f cb 40 bd
       -0.17105116 0.10600835 -0.08234443 -0.04706883
000190 38 98 3a bc c1 85 c2 bc 88 ca 20 3d d0 c1 66 be
       -0.011388831 -0.02374542 0.03925565 -0.22534871
0001a0 03 4c 46 3e eb 6e e5 bd d4 6f 84 3a bc c4 bc 3d
       0.19364934 -0.112027965 0.0010104128 0.092172116
0001b0 a2 fb df 3c 4d 8f 0a bd 8f 0c c0 bc 1d 52 81 3c
       0.027341668 -0.03382807 -0.023443488 0.015786225
0001c0 b6 12 84 3d 4c 5a 18 3e 04 51 8f 3d 3b cb 0d 3e
       0.06448881 0.14878196 0.069978744 0.13847058
0001d0 45 c4 1f 3d 3e e8 02 bd ee 8e 18 be f6 31 bb bd
       0.039005537 -0.031959765 -0.14898273 -0.09140389
0001e0 86 9e 02 be 58 52 51 be b2 8f 6a 3e 4a 4f 04 be
       -0.12755784 -0.20441568 0.22906378 -0.12920871
0001f0 f6 48 b2 bd 79 77 23 3d 6d 60 06 3d e7 88 11 bd
       -0.087053224 0.03990886 0.032806803 -0.03553095
000200 1e f8 96 3c 38 d4 b5 bc 11 76 1b 3e a3 46 6b bd
       0.018428858 -0.02219592 0.15181758 -0.05744041
000210 13 45 65 3d 3a 28 c4 3b ef 2b 2c bd f0 fb cd bc
       0.055974077 0.0059862407 -0.042034086 -0.025144547
000220 42 17 e3 3c e6 2c 9c 3d 06 fc d8 bd 0a ed ae 3d
       0.027721051 0.07625751 -0.10594945 0.08541305
000230 85 37 aa bc e0 3f c0 3c d7 ec 3a be e0 56 01 be
       -0.020778427 0.023467958 -0.1825441 -0.12630796
000240 49 47 f5 3c ff d0 13 be ef ad c5 3d c7 21 4c 3d
       0.029941218 -0.14435194 0.09652316 0.0498369
000250 ea 94 ef 3d 25 b3 dd 3d 3f 8a 1e 3e 64 af 42 3e
       0.11698325 0.10825185 0.15482424 0.19012219
000260 ec 8b f0 bc c6 50 fe 3d 34 34 61 3e 29 fc 93 3d
       -0.029363595 0.1241775 0.2199257 0.0722583
000270 dd b6 70 3b 48 43 4c 3d 79 cb 01 bd e7 39 4b 3e
       0.0036730089 0.049868852 -0.031688187 0.19846307
000280 ba 6d d9 bc d4 8e 0b 3e a2 ae c2 bb 12 dd 72 bd
       -0.02654158 0.13628703 -0.005941228 -0.05929286
000290 d0 e0 b8 bc 4e da 9a 3e 6c 95 b4 3d bf af 4d 3c
       -0.022568136 0.30244678 0.088175625 0.012554108
0002a0 21 dc 8c bd e6 c8 3c bd 9b 9d 69 3e e8 8b d3 bd
       -0.06877924 -0.04609003 0.22814028 -0.103294194
0002b0 a9 90 80 bd 37 3b e3 3d 6c 7f cf 3d 6f 0c c9 3d
       -0.06277592 0.11095279 0.10131726 0.09816825
0002c0 4f f0 b7 bd 74 b1 aa bc 4f f1 da bc b1 31 f9 3d
       -0.08981382 -0.02083657 -0.026726393 0.12167681
0002d0 ef 75 be 3d bf b8 bb 3d e6 94 c3 bb c6 be 7a bc
       0.09299838 0.09166097 -0.005968678 -0.015304273
0002e0 df a0 d3 3d 54 3d 92 be fd a9 40 3e 8e df e8 bc
       0.10333418 -0.28562415 0.18814845 -0.028426912
0002f0 9f 0e f1 bd 4e 04 0c be a1 6f cf 3d ac 7d 66 bd
       -0.11770367 -0.13673517 0.101287134 -0.056272194
000300 b1 ee 8f 3d a4 2b 8e 3e 11 f3 8a bd a5 25 48 3e
       0.07027949 0.2776767 -0.067846425 0.1954561
000310 91 5f 15 be dd 33 99 be 39 e9 50 3e 7f a2 1d 3e
       -0.14587237 -0.2992238 0.20401467 0.15394019
000320 c7 3b f9 3c fd 27 cc bc 87 31 58 be d5 18 3a be
       0.030424012 -0.024921412 -0.21112643 -0.18173535
000330 62 36 30 3d 83 50 3a bd 5e 8b 96 3d 7a 1d 64 bd
       0.043020613 -0.04548694 0.07350801 -0.055692174
000340 ea fd 74 bd 11 3d 6f 3e 33 ff 93 bd 67 88 09 3e
       -0.059812464 0.23363139 -0.0722641 0.1343094
000350 a2 38 87 3e 06 05 02 be 4a c2 6f 3d 32 4b af 3d
       0.26410395 -0.12697229 0.058534898 0.08559264
000360 83 d0 7a 3d 99 15 31 3e 24 2c d6 3d 11 47 11 3e
       0.06123401 0.17293395 0.10457638 0.14187266
000370 f1 e9 65 bd 6a 1d 0d be c8 b6 e4 3c bd 3a d4 3c
       -0.056131307 -0.13780752 0.027919188 0.025906915
000380 46 e0 05 3e 1c 6e d3 3d fd a6 7e 3e 61 d3 a2 bd
       0.13073835 0.10323736 0.24868388 -0.079504736
000390 c6 a7 46 3d 65 e6 82 3d d7 79 8f be b5 bb 19 3e
       0.048499845 0.063916005 -0.28022644 0.15013011
0003a0 f5 d3 e0 bc 7e 62 58 bd 9c cc 0c 3e 87 06 8e bc
       -0.027444819 -0.052828304 0.13749927 -0.017337097
0003b0 a2 14 e5 bd 77 17 5d 3e 72 a3 09 be e3 dc c0 3c
       -0.11185576 0.21590982 -0.13441256 0.023542827
0003c0 db e4 02 3d 73 d0 9f bc 13 9f 25 3b 1d 32 87 3d
       0.031956535 -0.019508576 0.0025271818 0.06601355
0003d0 75 02 23 3e 88 f0 3b be 50 a6 21 3d 54 63 7f 3c
       0.15918906 -0.18353474 0.03946525 0.0155876465
0003e0 08 68 f0 bd a0 10 4b 3d 91 4f 10 3d 75 52 d0 bd
       -0.117385924 0.0495764 0.03523213 -0.101719774
0003f0 90 7e 02 3d 75 95 03 3e e5 80 d5 3d c2 06 16 3e
       0.03185898 0.12849982 0.10424975 0.14651015

decoder.2.bias f4 [16]
000000 8b ae 10 3f ff 47 b2 be 36 1b b4 3e 3b 37 08 3f
       0.5651633 -0.34820554 0.3517701 0.53209275
000010 ab 37 c3 be 02 0a d3 bc c0 fc 43 bf 03 a1 b7 3e
       -0.3812841 -0.025761608 -0.7655754 0.3586503
000020 8d 9f e6 be 81 eb c0 be ec 41 38 3e 47 cc 3e bf
       -0.45043603 -0.37679675 0.17993897 -0.7453045
000030 86 e1 0d bf d2 e7 e3 be 87 26 7d 3d dd aa b4 3e
       -0.55422246 -0.44512802 0.06180432 0.35286608

decoder.4.weight f4 [16, 8, 5, 5]
000000 e4 a9 04 3e a7 de 48 3d 5e d4 09 be e8 50 52 be
       0.12955433 0.049040463 -0.13459918 -0.20538676
000010 68 48 03 be ee 7b 31 3e 16 bc 5f 3d a9 13 9a bd
       -0.1282059 0.17332432 0.054622732 -0.07523281
000020 43 c1 da be 3e 89 68 be 45 18 99 bd 45 10 56 be
       -0.42725572 -0.22708604 -0.07475332 -0.20904644
000030 66 9b 09 bf 54 53 aa bd 44 47 df bd d7 e2 81 bd
       -0.53752744 -0.08316675 -0.10902265 -0.063420944
000040 a0 f5 d2 be 71 77 88 be 29 43 dd bd 93 0e 99 3d
       -0.41203022 -0.26653627 -0.108038254 0.07473483
000050 24 54 96 3d aa 45 82 be 4e 0d 1b 3d 1e b2 43 3d
       0.07340267 -0.25443774 0.037854485 0.047777288
000060 ff 8a 7e bc 89 1e 7c 3d f8 9a f5 3d f0 22 d8 3c
       -0.015536069 0.061552558 0.119924486 0.026383847
000070 00 4e 7a bd 82 7a c5 3b 1f be 91 bc 06 0e ae bb
       -0.061109543 0.006026567 -0.017790852 -0.0053117303
000080 1d a3 cf bd c0 05 6d bd 29 93 b3 bd 6f 5e c1 bc
       -0.10138533 -0.05786681 -0.08768303 -0.0236046
000090 69 66 35 be d3 d4 86 be 3b f6 73 be 0a 70 db bd
       -0.17714848 -0.26334247 -0.23824398 -0.10714729
0000a0 28 81 62 3c c1 42 6e be 07 a2 1f be a4 10 fc bc
       0.013824739 -0.23267652 -0.15589152 -0.030769654
0000b0 cd 4a 80 bc 27 2f 03 bc bf 2d 13 be 32 85 8d bc
       -0.015660668 -0.008006847 -0.1437292 -0.017275427
0000c0 cb 1a 5b 3c 87 f5 a0 3b 28 f1 56 bd 43 0d 06 be
       0.013373087 0.0049120816 -0.05247608 -0.13090996
0000d0 70 de 1a be 82 03 72 bd dc 44 74 bc 9f 88 6b bc
       -0.15123916 -0.059085377 -0.0149089955 -0.014375835
0000e0 87 62 18 bd 3d 9d bc bd c4 ca 39 bd fc f0 14 3d
       -0.037203338 -0.09209678 -0.045359388 0.036362633
0000f0 1e 90 f9 bd ea 9b f3 bd a0 62 25 be b1 9c 0d be
       -0.12185691 -0.118949726 -0.16150904 -0.13829304
000100 bc 54 53 3c dd 33 54 3c 17 7b db bc 47 cc 5b bc
       0.01289862 0.012951818 -0.026792092 -0.013415403
000110 50 5e 11 3b b6 22 23 3c 42 87 15 3c a5 e8 3d 3e
       0.0022181459 0.009957006 0.009126486 0.18545778
000120 58 0a 2f 3d f9 cc ff bc a5 14 18 bd 20 a2 9b 3c
       0.042734474 -0.031225668 -0.037129063 0.018998206
000130 f3 6e bb bc df 6f 69 3c 11 a1 08 3c df 81 a4 3c
       -0.022880053 0.014247864 0.0083391825 0.020081459
000140 7f 17 a2 3d 14 3e 2e 3d 66 91 84 3c 6f c5 19 3d
       0.07914638 0.04253967 0.016182613 0.037541803
000150 fc 41 62 bb d7 ab 09 3d 2f b4 b6 3c 0e 4b 8b 3c
       -0.0034524193 0.033611145 0.022302715 0.017003562
000160 55 d3 69 bb ee 9b 38 ba f1 fc d7 3c b2 82 23 3c
       -0.0035678942 -0.00070422783 0.026365729 0.009979891
000170 4c 77 12 bb 46 37 5d 3b 4f a0 38 3b 86 aa 63 bc
       -0.0022348939 0.003375487 0.0028171723 -0.013895636
000180 47 f5 94 bc 29 6d ce 3c d7 59 d1 3c 3e 5a 95 bc
       -0.018183364 0.025198536 0.025555534 -0.018231507
000190 66 cd d9 3b c5 d1 82 bd f3 d5 5c bd fc 1a e1 bc
       0.0066468 -0.063876666 -0.053914975 -0.027478687
0001a0 0a e1 2b 3e ac 1f 9b 3d e3 b0 3f 3e 79 e1 38 be
       0.16785064 0.075744 0.1871982 -0.18054761
0001b0 5c df 24 bd 99 84 69 3d f2 ee 34 bd 59 8d 8a bc
       -0.040252075 0.05701122 -0.04417319 -0.016913103
0001c0 eb 57 6c bd 72 fb ae bc c3 e2 22 bd 23 95 95 3c
       -0.057701033 -0.021360133 -0.039767038 0.01825959
0001d0 df b8 24 3c 12 f7 78 bd 99 82 6e bc 46 2d c6 be
       0.010053842 -0.0607825 -0.014557504 -0.38706416
0001e0 c7 a7 a0 be 2a 55 0e be 4c a7 52 be 5b 28 20 be
       -0.31378004 -0.13899675 -0.20571631 -0.15640394
0001f0 51 67 6e be a6 01 42 3e 3a d5 d6 3d 1f d4 d5 bd
       -0.232816 0.18945941 0.104898885 -0.104408495
000200 1e 01 4b be 13 78 03 be d6 17 d9 3d e8 06 18 bd
       -0.19824645 -0.12838773 0.106002495 -0.03711596
000210 bc c6 a8 be 60 37 30 be 8f d2 cf bd a2 e4 48 bd
       -0.32964122 -0.17208624 -0.10147583 -0.049046166
000220 93 56 95 be bb 02 91 be ac 5a 15 be e4 1c 3d 3d
       -0.29167613 -0.28322396 -0.1458537 0.04617013
000230 29 63 f2 bd b6 64 ae be 4b 37 a9 bd c8 39 e9 3c
       -0.118353195 -0.3406121 -0.082624994 0.028469935
000240 a3 53 9c bd b4 38 ef bd 4e ab a6 bd f7 18 ee 3d
       -0.0763314 -0.11680737 -0.081381425 0.116258554
000250 fa f3 78 3c 25 9a 2f 3d 8e ce f0 3d f9 53 90 3d
       0.015194887 0.042871613 0.11758147 0.070472665
000260 33 e2 b9 bd 22 8f f3 3c e8 ac aa bd 08 75 96 3d
       -0.09076347 0.029731337 -0.083337605 0.07346541
000270 eb 7e 9e 3d f5 83 e2 3c 99 13 61 bd b8 b6 b9 3c
       0.077390514 0.027650813 -0.05495033 0.022670135
000280 8c 6c e2 be ba 35 b3 bc c4 25 d4 bd 2d a3 3a be
       -0.4422344 -0.021876205 -0.10358766 -0.18226309
000290 bf 7c 57 bd d3 4c 95 be 60 d2 45 be 45 ea 10 bf
       -0.0526092 -0.29160175 -0.19318533 -0.56607467
0002a0 ea f1 b7 be 49 b9 bc bd 17 b3 7a be 4d c0 8f bd
       -0.35926753 -0.09215028 -0.2448238 -0.070191
0002b0 07 9e a5 bd 83 52 f0 3c ff 5c 53 3d a6 f8 28 3d
       -0.08086782 0.02933622 0.05160236 0.041252755
0002c0 46 aa 71 3c 50 60 35 bc ea 4e fd bd 58 ae 48 bc
       0.014750069 -0.011070326 -0.12368567 -0.012248598
0002d0 f8 6c 99 3d ff 09 60 bc 49 32 80 3b 4b 16 47 be
       0.07491487 -0.013674258 0.0039122445 -0.19442098
0002e0 9b 4c 95 bc 86 6e bc bc af d2 2e bc 92 c2 d9 3a
       -0.018225005 -0.02300192 -0.010670348 0.0016613773
0002f0 48 81 49 3c 04 a8 17 3c 9f 5e 68 bb 98 f5 1d 3b
       0.012298889 0.009256367 -0.003545679 0.0024102684
000300 e5 48 1c 3c 09 eb 6b bd 78 05 6c bc c1 7a 9d 3d
       0.009538864 -0.057597194 -0.014405601 0.07689429
000310 77 5b a1 3c 3f a9 b5 bc 91 86 e6 3d d0 6b 20 3c
       0.019696934 -0.02217543 0.11256135 0.0097913295
000320 ce 29 e2 3d b9 ce ce 3d 64 57 7e bd 5b cd 7b bd
       0.1104313 0.10098023 -0.06209506 -0.06147514
000330 1c 68 44 3b 54 d1 98 3d a8 67 a3 bd 51 73 0e be
       0.002996928 0.07461801 -0.07978755 -0.13911177
000340 94 7f 37 be 6f 6f c1 bb ac 1c 6d bd ca 78 26 bd
       -0.17919761 -0.0059031765 -0.05788867 -0.040642537
000350 68 a2 36 bd e9 b7 44 bd 36 82 85 3c 0a 07 90 3d
       -0.044588476 -0.048026953 0.016297441 0.070325926
000360 90 61 97 3e 6d 46 d5 3e 9a fd 8b 3e 9b 44 f8 3d
       0.29566622 0.41655293 0.2734192 0.121224605
000370 05 ee 24 3c 53 aa 69 3e fb a5 e2 3d b5 42 0d 3e
       0.010066514 0.2281888 0.110668145 0.13794978
000380 d6 b2 0e 3d 05 8c 1e 3d c4 f6 3f 3d f7 9c 9c bc
       0.03483852 0.03870775 0.046866193 -0.019117815
000390 17 18 d0 bd e7 36 be 3c 52 88 80 bd d3 7f 39 3d
       -0.10160845 0.023219539 -0.06276001 0.04528792
0003a0 c0 a4 81 bd da 45 2d 3c 83 1e d2 bc 41 15 b3 3c
       -0.06330252 0.010575736 -0.025649315 0.02186072
0003b0 c5 4c 71 3c d7 eb db 3d 08 64 3a bd 02 1a bc bc
       0.014727776 0.10738342 -0.045505553 -0.02296162
0003c0 ac 3c a3 3b 28 04 0e 3e 69 b8 a3 3e 04 78 20 bd
       0.004981598 0.13868773 0.3197663 -0.039176956
0003d0 72 ce a8 3d 63 23 94 3b 62 38 c4 3d f7 f0 56 3e
       0.08242501 0.00452082 0.09581067 0.20990358
0003e0 57 e5 83 bd 1a bb 54 3d a4 5c a9 bd 8f 01 86 3d
       -0.064402275 0.051936246 -0.08269623 0.06543266
0003f0 3e 71 64 be 8e c0 55 3d 89 ff 8e bd 2b a9 62 bd
       -0.22308823 0.052185588 -0.06982333 -0.055337112

decoder.4.bias f4 [8]
000000 4f 7b 65 be f4 4b 8a be 01 2b 1b 3e d3 9d 33 3f
       -0.2241032 -0.27011073 0.15153123 0.70162696
000010 35 4d 0f be 70 0c 83 be 5a c2 2c 3e 60 5a f6 3e
       -0.13994296 -0.25595427 0.16871014 0.48115826

decoder.6.weight f4 [8, 1, 2, 2]
000000 8f 2f 00 3f e1 c3 c8 3e c2 0c 90 3e 76 50 3a 3e
       0.5007257 0.39211944 0.28134733 0.18194756
000010 ac f4 51 3f 53 cf 61 3e 28 48 1d 3f 51 b9 b1 3d
       0.82013965 0.22051744 0.61438227 0.086779244
000020 bd 18 a6 be 7f ed 23 bf fe 96 4a be c0 1c 03 bf
       -0.3244075 -0.64034265 -0.19784161 -0.51215744
000030 55 8d 23 be 7f e0 99 bd 3a e4 92 be b1 4a 33 be
       -0.15971883 -0.07513522 -0.28689748 -0.17508961
000040 84 e0 50 3f 35 95 88 3f de 90 99 3e d8 f9 87 3e
       0.81592584 1.0670534 0.29993337 0.26557803
000050 2e 52 4a bd dd 44 d0 3e 89 71 89 3e 29 45 44 3f
       -0.04939478 0.4067754 0.26844433 0.7666803
000060 4e fa a0 be 7a c4 83 be e8 c9 0f bf 52 2e 10 bf
       -0.31440967 -0.25735837 -0.5616746 -0.5632068
000070 00 9f 3f be fc 55 c2 be 4f b4 17 3d 00 5f 2b be
       -0.18712997 -0.37956226 0.03703719 -0.16735458

exp_avg f4 [16, 1, 3, 3]
000000 06 a8 cd 13 5b 58 88 13 74 2c 89 12 d5 02 cc 13
       5.191496e-27 3.441835e-27 8.656874e-28 5.1499632e-27
000010 bb 3d 13 13 da af 85 92 ec 81 2e 13 fb a9 fe 92
       1.8584444e-27 -8.436831e-28 2.2025944e-27 -1.6071557e-27
000020 fc 17 0f 94 a9 9d 32 93 55 27 bd 93 53 ab 35 94
       -7.224385e-27 -2.2544491e-27 -4.774909e-27 -9.1719525e-27
000030 bf f4 0f 94 da bf 35 94 47 9e 4f 94 54 04 13 94
       -7.267923e-27 -9.176001e-27 -1.0482044e-26 -7.422457e-27
000040 fc c1 e1 93 5e 12 e6 93 0c dd 57 12 ba d7 b8 12
       -5.698927e-27 -5.8078274e-27 6.81145e-28 1.1665213e-27
000050 bc cb aa 93 d6 ed 39 92 c5 55 ad 92 67 8d 99 93
       -4.311493e-27 -5.8668862e-28 -1.0938979e-27 -3.8762063e-27
000060 a2 c5 21 92 ed d2 84 11 d0 cf ea 11 1e 23 97 13
       -5.1046244e-28 2.095592e-28 3.7046765e-28 3.8152387e-27
000070 2f 1d b2 13 a0 a8 89 13 48 c4 0e 14 97 56 8a 13
       4.4962294e-27 3.474994e-27 7.2078776e-27 3.492148e-27
000080 37 a3 23 11 2b dd 36 13 5f 45 de 92 24 3f 2a 93
       1.2908727e-28 2.3080674e-27 -1.4027271e-27 -2.1488147e-27
000090 03 ca 72 13 59 af 05 13 ae 29 b8 92 40 b0 08 91
       3.0644294e-27 1.6873413e-27 -1.1622307e-27 -1.078282e-28
0000a0 a2 06 e5 0f 1b f9 3d 93 08 65 11 91 cc a3 c6 92
       2.2583698e-29 -2.3977972e-27 -1.1469616e-28 -1.2535936e-27
0000b0 82 f6 fe 92 e6 f4 7e 94 82 77 70 94 ba e8 50 94
       -1.6090422e-27 -1.28720206e-26 -1.2140472e-26 -1.05472136e-26
0000c0 c3 92 95 94 e3 fd 7a 94 7c a0 1d 94 63 7e 62 94
       -1.5103042e-26 -1.2671845e-26 -7.958124e-27 -1.14350095e-26
0000d0 e0 93 16 94 ff 02 87 93 41 cb 4f 93 a6 fd 2d 93
       -7.602228e-27 -3.4081745e-27 -2.6227285e-27 -2.1960728e-27
0000e0 30 e0 af 92 b3 fa 45 93 db 99 19 93 74 21 2b 93
       -1.1099319e-27 -2.49885e-27 -1.9387172e-27 -2.1599728e-27
0000f0 9e 09 95 92 5f 96 09 93 e4 f7 d3 92 8e 2b 95 93
       -9.405593e-28 -1.736597e-27 -1.3377082e-27 -3.7655836e-27
000100 3c ed 12 93 81 eb 97 92 f2 75 5e 92 7d dc 8d 12
       -1.8544756e-27 -9.587496e-28 -7.0196227e-28 8.952706e-28
000110 2f af 35 13 0e a0 c4 11 4a 35 cb 8e 56 2a 31 13
       2.2931784e-27 3.102199e-28 -5.009468e-30 2.2361414e-27
000120 db 0e ca 92 aa c5 a3 93 6d c9 a7 93 f5 f9 3e 93
       -1.2751654e-27 -4.1341897e-27 -4.2355348e-27 -2.410461e-27
000130 0e 0d a2 93 d7 24 77 93 2f d8 ae 93 fb a9 90 93
       -4.0907422e-27 -3.1193946e-27 -4.413695e-27 -3.6518324e-27
000140 00 f2 21 93 e4 50 e3 12 81 6c 3b 12 4e 76 21 12
       -2.0440372e-27 1.4345655e-27 5.9140537e-28 5.0948464e-28
000150 73 0e 2d 12 38 98 ac 10 30 50 13 12 82 f5 43 13
       5.4606985e-28 6.807657e-29 4.648386e-28 2.4733505e-27
000160 d4 a5 b7 12 09 ae 27 13 f7 e6 9c 93 b1 47 aa 93
       1.1589803e-27 2.116417e-27 -3.9607685e-27 -4.2984726e-27
000170 d5 51 0d 94 16 21 4f 93 c1 25 bd 93 4f 5b 2f 94
       -7.134819e-27 -2.6143386e-27 -4.7747536e-27 -8.8532496e-27
000180 f0 59 de 91 c8 ff 6c 93 e5 06 0a 94 ef 9f 1a 93
       -3.5080852e-28 -2.9913498e-27 -6.968579e-27 -1.9516386e-27
000190 ec 50 76 93 93 37 c2 93 9f df 6d 93 43 0c 61 93
       -3.1089463e-27 -4.9027285e-27 -3.002386e-27 -2.8405038e-27
0001a0 ae 25 92 93 d0 4f 8a 93 7d f5 5a 93 29 67 36 93
       -3.6892737e-27 -3.49148e-27 -2.7636503e-27 -2.3022491e-27
0001b0 42 f2 07 93 21 b1 3d 93 b7 6b 60 13 d5 a5 4e 93
       -1.7158838e-27 -2.3942485e-27 2.8325882e-27 -2.6082617e-27
0001c0 20 f7 0c 93 3d af 91 13 69 c3 12 93 4a fa 37 92
       -1.7792326e-27 3.6775944e-27 -1.8524135e-27 -5.8053123e-28
0001d0 2e 8d d0 13 48 08 68 92 d8 00 0d 93 28 3a b6 92
       5.2645796e-27 -7.32165e-28 -1.7797118e-27 -1.1500151e-27
0001e0 c6 af 1c 93 de ee aa 92 63 94 20 92 40 70 17 93
       -1.9776631e-27 -1.0787394e-27 -5.067e-28 -1.9114223e-27
0001f0 3f e9 dd 92 16 bf 22 93 7f 76 c2 12 41 1a ac 10
       -1.400456e-27 -2.0541487e-27 1.2272333e-27 6.788249e-29
000200 ce 4f 1c 12 89 39 d3 12 59 36 62 12 07 d9 d1 92
       4.9323287e-28 1.3330156e-27 7.1380014e-28 -1.3243256e-27
000210 8b 38 8b 10 ad 1e 75 92 a5 2b b1 92 9e d0 e0 12
       5.491295e-29 -7.734618e-28 -1.118103e-27 1.4187816e-27
000220 9e ec 19 92 87 70 a2 92 f3 6c 9f 13 fd 32 27 13
       -4.856994e-28 -1.0251377e-27 4.0244675e-27 2.1103503e-27
000230 48 68 44 13 d1 96 ba 13 28 21 c1 13 07 b1 b1 13
       2.4790093e-27 4.7101718e-27 4.8752744e-27 4.4855644e-27
